chatbot_web/backend/data.pth (torch, 5079 bytes, 6 tensors)

l1.weight f4 [8, 54]
000000 f7 33 9d be 43 95 50 be 07 fc 8c be 7b 14 cb 3e
       -0.3070371 -0.20369439 -0.27536032 0.39664063
000010 b5 82 a9 3e 50 17 01 bf 2c 3e b3 be 0f 73 bc be
       0.33107534 -0.504262 -0.3500837 -0.36806533
000020 64 c7 e8 be cb 62 ca be c7 b6 06 3f 61 6b de 3e
       -0.45464623 -0.39528498 0.52622646 0.434413
000030 fb c0 86 3d ec 73 75 3e 04 83 03 bd a5 89 e5 3e
       0.06579777 0.23970002 -0.032107368 0.44831577
000040 f4 7c e8 3e 15 94 b2 be 59 0e 3a be e8 2a 2b 3f
       0.45407832 -0.34878603 -0.18169536 0.66862345
000050 c7 f0 30 be e3 f3 3d 3f f0 97 36 3f ff f6 2b 3f
       -0.1727935 0.74200267 0.7132559 0.6717376
000060 9b 70 e9 3e 59 4c d6 3e e7 2f d6 be 38 32 c3 be
       0.45593724 0.41855124 -0.41833422 -0.3812425
000070 4a 14 3f be f0 fb 42 be 15 cc 9d be 2e 98 81 3e
       -0.18660083 -0.19041419 -0.30819765 0.25311416
000080 f6 27 03 be 64 a9 d0 be 59 f2 7f be 0a 0d f5 3e
       -0.12808213 -0.40754235 -0.24994792 0.4786151
000090 bb 82 4f be 6a 2d ff be 90 14 9e be 28 94 98 be
       -0.20264713 -0.49839336 -0.30875063 -0.29800534
0000a0 6c 6b be bd 6b 40 20 bd e6 f0 81 3e 18 27 2d be
       -0.09297833 -0.039123934 0.25379103 -0.16909444
0000b0 90 91 95 3e cf 5a 84 be 26 99 35 bf 5b ea 6a be
       0.29212618 -0.2585053 -0.7093681 -0.22940962
0000c0 ac 78 ab 3e d1 ae d5 be 21 de d4 3e f9 88 33 be
       0.33490503 -0.41734937 0.4157572 -0.1753272
0000d0 b5 02 16 be 69 aa 7e 38 eb 17 66 be ee 5e be be
       -0.1464947 6.0717026e-05 -0.22470061 -0.371818
0000e0 b7 2e b2 bd 04 90 f8 3e 94 b6 d4 3e f0 6c 34 3f
       -0.087003164 0.48547375 0.41545546 0.70478725
0000f0 6f 70 15 bd e2 8a d4 bc 70 fa b7 be b9 2f 5b 3d
       -0.03648418 -0.02594513 -0.35933256 0.05351231
000100 4b 0e b3 3e 9a 4c 80 bd eb 5d 34 3e 90 ab 02 be
       0.34971842 -0.062646106 0.17613952 -0.12760758
000110 54 3e 04 be 7b b6 48 bd 8f 82 e4 3e 3a d4 33 3f
       -0.12914401 -0.049002152 0.44630858 0.7024571
000120 50 2b af 3e 29 95 15 3f ba c7 9d be b8 26 dd 3e
       0.34212732 0.58430725 -0.30816442 0.43193603
000130 33 13 bf 3e ca d1 d3 3e 75 82 04 bd 35 96 ef 3e
       0.37319335 0.41370994 -0.032350976 0.46794286
000140 3f 1c 09 3f 1e 67 b0 be f3 b7 c1 3e 0e 63 bc be
       0.53558725 -0.34453672 0.37835655 -0.36794323
000150 5e da 28 3f 5e 74 b4 bd 1e 15 13 be 5e 06 5a be
       0.659582 -0.08811258 -0.14363524 -0.21291491
000160 b8 22 b2 be b2 7d 38 be e8 5b 6f 3e 99 14 08 bf
       -0.34792113 -0.18016699 0.23374903 -0.5315643
000170 1f c0 cc 3d 4e ba c1 3d d8 e3 0d 3f 23 70 03 3f
       0.09997582 0.09459363 0.55425787 0.5134298
000180 84 18 02 bd ed 8d 23 be f6 87 ab 3d fa 39 42 be
       -0.03176166 -0.15972109 0.08375542 -0.18967429
000190 77 a4 2a bf 10 36 53 be bd b2 e4 3e ad d2 d4 3e
       -0.66657203 -0.20626092 0.44667616 0.41566983
0001a0 42 7c 94 bd f3 88 91 3e 08 5e 7a 3c f9 aa d1 3d
       -0.07250263 0.28424796 0.015281208 0.102376886
0001b0 a1 58 c2 3c 86 4c ab 3e 1c f3 00 3f eb 44 30 be
       0.023723902 0.3345682 0.50370955 -0.1721379
0001c0 e8 4f 52 3e b8 bf 02 3f 01 74 bc 3e ed cd f2 3e
       0.20538294 0.5107379 0.36807254 0.47422734
0001d0 8e 0e 3c 3f a2 65 11 3f ba bb fa bd 10 98 ab 3e
       0.7345971 0.56795704 -0.12242837 0.33514452
0001e0 9b 6b 41 3f a5 0f 06 3f a2 58 9c 3e ec cd 45 3e
       0.7555482 0.5236762 0.3053637 0.19316834
0001f0 33 27 9a be 6a 5d 02 3f c7 3b 54 3e 36 70 d9 be
       -0.30108032 0.5092379 0.20725928 -0.42468423
000200 69 f0 b5 3d f4 36 a9 be 77 18 f0 be 3e 43 cd be
       0.08883745 -0.33049738 -0.46893665 -0.40090364
000210 a0 e4 14 3f 95 2c c7 bd dc 66 ec 3e 56 5a c8 3e
       0.58161354 -0.097253 0.46172225 0.3913142
000220 d7 d9 31 3e e4 d4 82 3e 93 ee 76 3e 72 74 c6 3e
       0.17368256 0.25553048 0.24114446 0.38760716
000230 5e e8 3a 3d 2d 61 eb 3e ab 03 14 3f b0 b1 72 3e
       0.04563176 0.45972577 0.57818097 0.23700595
000240 b8 cf 49 3e d6 61 24 3f 41 ed 18 3f bc e2 09 3f
       0.19708145 0.64211786 0.5973702 0.53861594
000250 2c 6f 1f 3e e8 23 87 3e 04 59 45 3e 26 88 bf 3e
       0.15569752 0.26394582 0.19272238 0.3740856
000260 58 56 39 3f 70 af 2f 3f 9e 9d 9f bd 2a 60 0b bd
       0.72397375 0.6862707 -0.07793735 -0.034027256
000270 0a 63 71 3d 2a ec 8f 3e c6 ab 3c 3e 68 d2 87 3e
       0.05893234 0.28109866 0.18424901 0.26527715
000280 d8 c3 14 3f 11 bb ac 3e 32 91 9d 3e 06 c7 01 3f
       0.58111334 0.3373647 0.30774838 0.5069431
000290 65 bb fb be 5d 04 b7 3c 11 51 2a bd a1 6d 03 3f
       -0.49166408 0.022340948 -0.041581217 0.51339155
0002a0 61 0c 6b be 20 bc b9 be 43 18 ee be 3d 67 7e be
       -0.22953941 -0.3627634 -0.46502885 -0.2484407
0002b0 0d 20 27 3c e9 66 0b be 08 7e 58 bd ad 6c 3a be
       0.010200513 -0.13613476 -0.052854568 -0.18205519
0002c0 2e 67 af 3e f7 7e 46 be 20 5e 60 3c 5b f8 15 3f
       0.34258407 -0.1938437 0.013694316 0.58582085
0002d0 7c 5e d8 be b7 c1 19 3d dc 8a e2 3e 41 b1 06 be
       -0.42259586 0.037538256 0.44246566 -0.13153554
0002e0 9f 5f b4 3d 3c 24 51 3e 54 29 70 be 82 60 98 bc
       0.08807301 0.20423979 -0.23453265 -0.018600706
0002f0 68 3a a7 be 9c ba 08 3f 79 97 bd bd 74 eb 5f 3e
       -0.32661748 0.53409743 -0.09257407 0.21867162
000300 45 aa ca 3e 0b fa ab be db 9f 72 bd 5c a4 07 bf
       0.3958303 -0.33589205 -0.05923448 -0.5298517
000310 cd a4 cb 3e 3d 67 fa bd e8 56 45 be 68 f3 16 bf
       0.3977417 -0.122267224 -0.19271433 -0.5896516
000320 b6 c2 9e bd b4 a3 2d be e6 a1 f7 3e 54 02 ff be
       -0.07751982 -0.16956979 0.48365706 -0.49806464
000330 3c f8 17 be 93 0b e8 3e d2 b2 d9 be d8 e9 ba 3e
       -0.14840788 0.4532133 -0.42519242 0.36506534
000340 43 92 28 3f fc 72 88 3e 64 16 12 3e be 0f 1c bf
       0.6584818 0.26650226 0.14266354 -0.6096152
000350 9b 58 17 be 90 64 b7 be 98 d3 34 be ef 95 8b 3e
       -0.14779894 -0.3581891 -0.17658842 0.27262828
000360 47 3e 00 3f 0e 9e 08 3f 3e 18 6c bd 16 88 4d be
       0.5009503 0.5336617 -0.057640307 -0.20071444
000370 61 5a da be e8 c4 e6 be 93 a0 50 be 10 c9 0f be
       -0.4264708 -0.45072103 -0.20373754 -0.14041543
000380 32 e5 6e bd 9c d4 6a be 1c 2d cf 3b 0c b2 c2 3e
       -0.058324046 -0.22932667 0.006322516 0.38026464
000390 d3 94 ed 3d 6f 67 05 3f 6c 05 f1 3e a2 55 9f 3e
       0.116006516 0.5211095 0.4707445 0.3112002
0003a0 fc 17 8b bd 81 aa e6 be d6 47 46 be 93 35 b7 be
       -0.06791684 -0.4505196 -0.1936334 -0.3578306
0003b0 1b 78 c9 3e b0 96 de be af 03 d7 be 0c 92 e7 3e
       0.39349446 -0.4347434 -0.41994998 0.45228612
0003c0 da c9 b7 3e dd f9 ce 3a cd c3 1d be 33 d1 2a 3f
       0.35896188 0.0015791018 -0.15406723 0.6672546
0003d0 74 66 42 3d 32 4c fa 3e 01 c4 92 be bc 7a bf 3e
       0.04746099 0.48886257 -0.28665164 0.37398326
0003e0 3b d5 0a 3e 46 6e 0f bd 26 06 d3 3e 34 c5 7a 3e
       0.13557903 -0.035017274 0.41215628 0.2448929
0003f0 7a e3 01 be ea f2 0a bd 88 6e 53 be 59 02 49 be
       -0.12684432 -0.033923067 -0.20647633 -0.19629802

l1.bias f4 [8]
000000 f6 8c 35 3f ec 91 53 3f e5 8b f5 3e 71 31 63 3f
       0.70918214 0.82644534 0.47958294 0.88747317
000010 5f a8 e6 3e 12 10 0d 3f e9 18 0e 3f 7f 48 cf 3e
       0.45050332 0.55102646 0.5550676 0.40484998

l2.weight f4 [8, 8]
000000 10 03 90 3f e9 ee 4d 3f cc cb 20 bf a0 61 62 3f
       1.1250935 0.8044267 -0.6281097 0.88430214
000010 4d 84 98 3e 36 73 03 3f b5 92 3c 3f a4 5d 59 bf
       0.29788437 0.5134767 0.7366136 -0.8490851
000020 b1 b8 24 bf 50 47 99 be 6d ad 4e 3f e7 15 8a 3f
       -0.64344317 -0.2993722 0.80733377 1.0787934
000030 02 97 93 3f 28 36 70 3e ac f4 9d 3d f2 f5 97 bf
       1.1530459 0.23458159 0.07712683 -1.1871932
000040 c2 af b8 3e 15 b6 5f 3f 2d e8 15 bf 02 4a 76 3f
       0.36071593 0.8738721 -0.585574 0.96206677
000050 60 eb 0b bf 50 e0 98 3f 72 27 99 3f 24 3e 6d 3e
       -0.5465603 1.1943455 1.1965163 0.23168236
000060 d3 ad cd be 6a 6a fd 3e 53 92 1f 3f 39 86 86 3f
       -0.4017168 0.4949525 0.6233265 1.0509712
000070 d4 86 3d bf be 0f 85 bf 4f 31 02 bf 7f b1 92 bd
       -0.74033856 -1.0395429 -0.5085649 -0.07162761
000080 ea 77 07 bf 42 ac 9e 3d fa 9b 34 3f 9e 7b 8d 3f
       -0.5291735 0.07747699 0.705505 1.105335
000090 93 b4 4d be 83 39 81 bf 13 9f 81 bf 07 80 91 3e
       -0.20088415 -1.0095676 -1.0126671 0.2841799
0000a0 6a 95 7a 3f b5 aa 5c 3f a5 06 97 3f c3 70 7a bf
       0.9788424 0.8619798 1.1798903 -0.9782831
0000b0 b3 44 e1 3e 4e 9c 69 bb 9e ea 55 bd ae 38 93 3f
       0.43997726 -0.0035646143 -0.0522257 1.1501672
0000c0 70 42 19 3f fb e4 99 3f 1b d2 15 bf 0e bb 2a 3f
       0.59867 1.2023004 -0.5852372 0.6669167
0000d0 14 c3 58 bf 75 9a 5a 3f 98 fd 4a 3f c6 2f 52 3e
       -0.84672666 0.8539193 0.79293203 0.20526037
0000e0 82 e8 3e bf 85 1b 6a 3f 05 9a 65 3f c4 5c dc be
       -0.7457353 0.9144824 0.8968814 -0.43039525
0000f0 f8 6a 48 bf f5 8d 52 bd dd fd 19 bf fd f1 8f 3f
       -0.7828822 -0.051404912 -0.6015299 1.1245724

l2.bias f4 [8]
000000 fd 1b 21 3f 8b 81 1b 3f 4a 40 b8 3e 97 9e bf 3e
       0.6293333 0.6074454 0.3598655 0.37425682
000010 81 19 fc 3e 8d a0 c3 3e 43 45 9b 3e d4 3f ed 3e
       0.49238208 0.38208428 0.3032628 0.4633776

l3.weight f4 [7, 8]
000000 65 7d 8c 3e fb 1e bd bd cd 82 88 bf e3 9b a8 bf
       0.27439418 -0.09234425 -1.0664917 -1.3172573
000010 6a e3 2d bf a5 6d 1c 3f 76 07 24 bf c0 9e 35 bf
       -0.6792513 0.61104804 -0.64073884 -0.7094536
000020 54 39 13 bf 50 c2 17 3f 96 a5 68 bf 0d 13 26 3e
       -0.5750935 0.5928087 -0.90877664 0.16218205
000030 5e 74 57 3f 70 59 f8 be 31 55 51 bf b6 05 b2 be
       0.8416194 -0.48505735 -0.81770617 -0.34769982
000040 48 62 12 3d b7 eb 07 bf e5 be 60 bc 29 04 1f 3f
       0.03573826 -0.5309405 -0.013717388 0.6211572
000050 d8 fc c7 3e 9d 83 8e be a6 e1 7d 3e 39 83 9a 3e
       0.39060092 -0.27834788 0.2479311 0.3017824
000060 fb 91 30 3f 43 7d ce bf 70 98 16 3f da fc b9 bf
       0.6897275 -1.6131977 0.5882635 -1.4530289
000070 6e b1 8f bf 85 eb 1a be bd 29 34 3f a5 43 25 bf
       -1.1226022 -0.15128906 0.7037619 -0.6455634
000080 cc cf 6a bf aa ce a2 bf 56 d2 3a 3e 7e a3 90 bf
       -0.9172332 -1.2719319 0.182443 -1.1299894
000090 53 1d 67 bf d9 86 9a 3e 3c 50 06 3f da 60 13 3f
       -0.9027912 0.30181006 0.5246618 0.5756966
0000a0 f7 9b 5f bf 34 7a ac bf fd 04 5c bf 36 cf f9 3e
       -0.8734736 -1.3474793 -0.8594511 0.48790902
0000b0 67 26 1b 3f a0 b9 ab 3e 5f a6 3a bf 2b 4e 3e 3f
       0.6060547 0.33540058 -0.7291011 0.74338025
0000c0 4a 7f bb 3e ec 13 01 3f db c8 e6 3e c6 14 c5 bf
       0.3662055 0.50421023 0.45075116 -1.5396965
0000d0 f7 5c 8f bf 6e f6 a9 bf da f6 1e 3e f1 ca 2e bf
       -1.1200246 -1.3278329 0.15523854 -0.68278414

l3.bias f4 [7]
000000 6a e0 cb 3e d3 de 70 3e 61 0a 12 be 6f 72 9c be
       0.39819652 0.235225 -0.14261772 -0.30556056
000010 38 c1 bb be ba db d0 3d 91 63 7e 3e
       -0.36670852 0.101981595 0.24842669
